Models/model_LSTM.tflite (tflite, 436948 bytes, 16 tensors)

Output/bias f4 [7]
-0.009095235 -0.012961136 0.01579782 0.009489584 0.007882936 -0.007691789 -7.0636546e-05
00000000: 2e04 15bc f25a 54bc 6e6a 813c 337a 1b3c
00000010: 6e27 013c 670b fcbb b522 94b8

Dense_1/bias f4 [32]
0.0072045387 -0.0015251264 0.008848645 -0.0016288165 0.013093188 -0.00214174 -0.00054221234 0.007577535
0.0053423666 0.012958845 0.009061993 -0.0001283459 0.0072331764 -0.005078874 0.017128801 0.0039615124
-0.0015737232 -0.001665217 0.010845276 0.012228666 0.004056072 0.0051802676 -0.0029078792 0.00708271
-0.00055747863 -0.012001668 0.011225252 0.0092092035 -0.0017881278 0.010140449 -0.0036020179 0.001874248
00000000: 0d14 ec3b c0e6 c7ba e8f9 103c 037e d5ba
00000010: d084 563c 6f5c 0cbb 4123 0eba f94c f83b
00000020: 050f af3b 5651 543c c178 143c 9794 06b9
00000030: 4804 ed3b af6c a6bb b351 8c3c 93cf 813b
00000040: 6345 ceba 6943 daba 62b0 313c be5a 483c
00000050: cce8 843b 3cbf a93b 1e92 3ebb 1416 e83b
00000060: c223 12ba a5a2 44bc 1fea 373c 33e2 163c
00000070: 9d5f eaba 2024 263c d50f 6cbb 54a9 f53a

arith.constant f4 [32, 32]
0.06347835 -0.052241378 -0.08777779 0.028737038 -0.067386076 0.13541383 0.1492269 0.025549049
-0.14856997 -0.062339693 -0.08345567 0.12727924 0.045663446 -0.12586193 0.032013748 -0.07379589
-0.23742254 -0.026233781 0.12939274 -0.0005927753 0.16228096 0.0009248351 -0.014642849 -0.03316731
0.17997597 0.003256752 0.013731076 -0.018111993 -0.10279088 0.041785598 -0.048667863 0.29407758
-0.06644839 -0.099720135 -0.13802862 -0.17465946 -0.04085381 -0.11779425 -0.09248843 0.11765088
-0.08842208 -0.073813744 0.08790542 0.1224086 -0.018057914 -0.05750048 0.0028294688 -0.025242217
0.021138165 0.086867064 0.2189069 -0.09300671 0.025601532 0.062680714 -0.023142362 0.0043556397
2.3023655e-05 0.058779288 -0.09095024 -0.016141137 -0.09889003 0.11284401 0.1312409 -0.12438192
0.046252456 -0.009840373 0.041610155 0.021018628 0.12978499 0.15823554 -0.14605081 -0.030168474
0.18475035 0.014188016 0.022999752 -0.011947827 0.2732554 0.036570814 0.039480254 -0.05454083
-0.05470182 0.033236794 0.015663382 0.046086516 0.110294536 -0.084017284 0.07450505 -0.031828985
-0.044975523 0.056482416 -0.036528498 -0.050374106 0.04462122 0.17701815 -0.028310874 -0.08632861
-0.091846004 -0.08311349 -0.03893873 0.01412365 -0.029461501 0.029741434 0.080625564 0.09937617
-0.04482799 0.010253092 0.04098609 0.08323557 0.11822448 0.038912956 -0.14463076 -0.13915451
-0.110422485 -0.07763187 -0.07398589 -0.067589656 0.0075905793 -0.11353191 -0.16160582 -0.021240309
0.10881227 0.037878063 -0.033335026 0.12643948 0.040020093 -0.11322388 -0.13571201 -0.04161169
-0.058159128 0.18430601 0.04558967 0.077809125 0.07846715 0.03266203 -0.17226925 -0.15668356
-0.0009996323 0.021344086 -0.092282735 -0.06199745 -0.0037471503 -0.0537946 -0.026858514 -0.07041441
-0.14818671 -0.23159304 -0.15173337 0.033628993 0.056387443 -0.048382327 0.26406083 -0.043314025
0.11964652 -0.13047893 -0.0705215 -0.018565629 -0.100422844 -0.1089208 -0.053490788 -0.043829918
0.0831971 -0.13878104 0.02473764 0.021491317 -0.09781606 0.23144542 0.06890161 -0.043921657
-0.04688461 0.108086735 -0.046468038 0.12534572 -0.15081151 -0.07012163 0.16309994 0.11522028
-0.028292993 -0.05920692 0.0144174965 0.14260498 0.040992487 -0.15500322 -0.011408582 -0.044057496
-0.025063548 0.09060506 0.0718612 -0.17785744 -0.027107213 -0.04274871 -0.068194404 0.017296977
-0.16103035 0.03986757 -0.063486084 -0.035262756 0.0072294273 0.0388094 -0.01080151 0.10533986
0.01772625 -0.11923573 0.06398219 0.111512735 0.035006616 -0.121369734 -0.08732603 0.07381361
0.07673117 -0.06593079 0.13590382 -0.07914434 -0.04869895 0.077221684 0.062004462 0.028780311
0.012107089 -0.011572717 -0.21378754 0.06519926 0.024235073 -0.054349955 0.029959016 -0.05447835
0.1343131 0.026236815 0.090913326 -0.062494915 0.02275553 0.098061204 -0.006886349 0.09248346
-0.014155683 0.11574156 0.023876753 -0.025257 0.007867155 -0.13110884 0.15583345 -0.09237406
0.026093284 -0.065140836 -0.026815906 0.12817341 0.07388157 0.064281486 0.16446486 0.20049644
0.08812264 -0.06538842 0.056488372 -0.15473469 0.05362291 -0.014400862 -0.06868696 0.05280215
00000000: f000 823d 0efb 55bd d8c4 b3bd f069 eb3c
00000010: b601 8abd eca9 0a3e f0ce 183e 3d4c d13c
00000020: ba22 18be e857 7fbd ceea aabd 7d55 023e
00000030: 9809 3b3d f3e1 00be d920 033d 4d22 97bd
00000040: e51e 73be 3ae8 d6bc 887f 043e 7a64 1bba
00000050: fb2c 263e a270 723a 8fe8 6fbc 72da 07bd
00000060: 9f4b 383e 3b6f 553b 4ff8 603c 9a5f 94bc
00000070: 0684 d2bd 6027 2b3d f457 47bd 5691 963e
00000080: 1816 88bd 123a ccbd 6057 0dbe eed9 32be
00000090: 5356 27bd 1d3e f1bd 936a bdbd f2f2 f03d
000000a0: a316 b5bd a92b 97bd c207 b43d 5cb1 fa3d
000000b0: 31ee 93bc a085 6bbd 9c6e 393b c4c8 cebc
000000c0: f229 ad3c 5ce7 b13d 2129 603e 4d7a bebd
000000d0: 4eba d13c bf5e 803d 0d95 bdbc c1b9 8e3b
000000e0: ec22 c137 8dc2 703d 1f44 babd 6b3a 84bc
000000f0: db86 cabd c31a e73d 0464 063e f3bb febd
00000100: 3773 3d3d 8439 21bc 696f 2a3d 422f ac3c
00000110: 5be6 043e 7f08 223e 588e 15be e023 f7bc
00000120: 322f 3d3e da74 683c fa69 bc3c d2c0 43bc
00000130: 22e8 8b3e 47cb 153d 0cb6 213d 3566 5fbd
00000140: 040f 60bd 4e23 083d 7e50 803c 37c5 3c3d
00000150: 1ae2 e13d 4111 acbd 1b96 983d 1c5f 02bd
00000160: 4138 38bd 1b5a 673d e89e 15bd 1455 4ebd
00000170: bec4 363d 3f44 353e 35ec e7bc 0ecd b0bd
00000180: c219 bcbd 6837 aabd 387e 1fbd e266 673c
00000190: 3f59 f1bc 4fa4 f33c 041f a53d bc85 cb3d
000001a0: 8e9d 37bd 96fc 273c 08e1 273d 6977 aa3d
000001b0: ad1f f23d 3163 1f3d 161a 14be 857e 0ebe
000001c0: 2f25 e2bd 75fd 9ebd ea85 97bd 726c 8abd
000001d0: 65ba f83b 6b83 e8bd ff7b 25be 2800 aebc
000001e0: f8d8 de3d 0726 1b3d 4f8a 08bd 5a79 013e
000001f0: 1cec 233d ece1 e7bd 17f8 0abe 0571 2abd
00000200: 4438 6ebd b7ba 3c3e 3cbc 3a3d 645a 9f3d
00000210: 63b3 a03d 9fc8 053d 5a67 30be a871 20be
00000220: 1806 83ba cbd9 ae3c bbfe bcbd 0af1 7dbd
00000230: c092 75bb ba57 5cbd 6306 dcbc 6e35 90bd
00000240: 42be 17be ba26 6dbe fe5f 1bbe 8ebe 093d
00000250: 85f6 663d 8c2c 46bd fb32 873e 0c6a 31bd
00000260: 3c09 f53d 459c 05be 946d 90bd f216 98bc
00000270: 7eaa cdbd de11 dfbd 2819 5bbd 0087 33bd
00000280: 3e63 aa3d 9e1c 0ebe 97a6 ca3c 8f0e b03c
00000290: c953 c8bd 0700 6d3e 4a1c 8d3d 32e7 33bd
000002a0: 140a 40bd 945c dd3d 4555 3ebd a15a 003e
000002b0: 556e 1abe ee9b 8fbd ac03 273e 9cf8 eb3d
000002c0: b5c6 e7bc f582 72bd 5d37 6c3c 0a07 123e
000002d0: bde7 273d 2ab9 1ebe 10eb 3abc a275 34bd
000002e0: 1252 cdbc 258f b93d f72b 933d 4320 36be
000002f0: f20f debc 4519 2fbd 82a9 8bbd 64b2 8d3c
00000300: 24e5 24be 2d4c 233d fe04 82bd ae6f 10bd
00000310: d5e4 ec3b 9bf6 1e3d d1f8 30bc 6dbc d73d
00000320: a436 913c dd31 f4bd 1809 833d ca60 e43d
00000330: 1963 0f3d b290 f8bd fdd7 b2bd 972b 973d
00000340: 3b25 9d3d b906 87bd 5f2a 0b3e 6d16 a2bd
00000350: 8d78 47bd 6726 9e3d 64f8 7d3d b0c4 eb3c
00000360: d05c 463c 7e9b 3dbc 1feb 5abe 3187 853d
00000370: a288 c63c 0f9e 5ebd 9c6c f53c b124 5fbd
00000380: 6089 093e 97ee d63c c430 ba3d abfa 7fbd
00000390: ce69 ba3c 50d4 c83d e2a6 e1bb f867 bd3d
000003a0: 3ded 67bc e909 ed3d 2e99 c33c c5e7 cebc
000003b0: 3de5 003c 6541 06be ce92 1f3e 9c2e bdbd
000003c0: 95c1 d53c 8f68 85bd 08ad dbbc e43f 033e
000003d0: 384f 973d 03a6 833d 7a69 283e f04e 4d3e
000003e0: a579 b43d 5dea 85bd 5a60 673d c572 1ebe
000003f0: b2a3 5b3d 98f1 6bbc c0ab 8cbd 1147 583d

arith.constant1 f4 [32, 32]
0.13648584 -0.1105564 0.16219953 0.070291914 -0.051410932 0.023666354 0.068771146 0.13326865
0.050503917 -0.10302798 -0.10555248 -0.12922587 0.035193007 -0.09629181 0.040974442 -0.00040959354
-0.11719791 0.2794623 -0.13321316 -0.01656322 0.10606131 -0.08426222 0.029943414 -0.13098678
0.054488618 0.111679055 0.071859166 0.019316332 -0.08962863 0.054609045 -0.048343237 -0.029946554
0.123585925 -0.014594817 -0.08283366 -0.0011204375 -0.06826666 -0.057127938 0.062809125 0.105421185
-0.009641553 0.10762463 0.025208086 0.12437102 -0.14987905 -0.11770508 -0.120655805 0.09196895
0.12862386 0.09470982 -0.031965595 0.012677177 -0.14154094 0.04794043 -0.015235142 0.18105833
0.2902248 -0.1329122 -0.080602646 0.09453529 0.016828878 0.062283292 0.045322645 0.007295789
-0.09514808 -0.095113404 0.065439805 -0.10687366 -0.19745496 -0.042396106 0.09270573 -0.11017989
0.23470412 -0.1431321 0.04512819 -0.1227555 -0.099412456 -0.12123427 -0.008208357 0.00045739167
0.0355133 0.09623771 -0.103286065 -0.007385772 0.05815844 -0.029567953 0.016068345 0.056115225
-0.13493958 0.12559082 0.03130679 0.06799166 0.07801032 0.08357678 0.07241206 -0.1508842
0.15042879 -0.06137979 0.013167489 -0.12978898 0.0480453 -0.12503189 -0.019122649 0.10752967
-0.002439589 -0.18923137 -0.051165443 0.077682436 0.25097048 -0.020185554 0.33086124 -0.12880155
0.0031956462 -0.032150146 0.0922957 0.051270958 -0.019984255 0.04465782 0.027088339 -0.033730187
0.039301902 0.06332601 -0.012086771 -0.04766952 -0.004505718 -0.14620538 0.07471621 0.013440482
-0.03580685 -0.073905595 0.033694632 -0.0030884135 0.29823914 -0.14233476 0.044085436 0.0425875
-0.07183695 -0.12244872 -0.16803403 -0.12512328 -0.0955933 -0.06561332 -0.023552615 0.055305857
-0.068658024 -0.1423829 -0.13278338 -0.056616887 0.13013563 0.0792584 -0.07366569 0.12077498
0.039610352 -0.03708633 0.067124344 0.10047285 0.12925097 -0.03416127 -0.078667834 0.10436631
-0.01650756 -0.018044027 -0.09970021 0.03414106 -0.09595057 0.060508378 0.011564539 -0.036285825
0.11525078 0.04971242 -0.1752193 0.12658581 -0.100496314 -0.0057661156 0.03945003 -0.150141
-0.14804365 0.20362952 0.15720521 0.20022248 0.038114913 0.05540692 0.16454566 0.05689367
0.02522271 -0.039877664 -0.06528794 0.066743635 -0.007898151 -0.044974733 -0.00994022 0.018963814
-0.032641973 -0.024170728 -0.00768423 -0.15812401 -0.10807817 -0.08365243 0.12803246 -0.13376898
0.115833946 -0.0062175673 0.16789863 0.048814222 -0.0399686 0.098461255 -0.1158601 -0.046222415
0.04024307 -0.08884135 0.016463587 -0.020479463 0.17362157 -0.14333491 -0.044518206 0.09161271
0.015166629 0.15320511 0.15155795 0.030701784 -0.07693664 -0.002958898 -0.17115599 0.12291648
-0.07859282 -0.19636399 0.04307411 -0.018881615 0.17022452 -0.0064226408 -0.09887136 0.09715322
0.0094016455 0.04576906 0.042829193 0.28112 -0.010274307 -0.095672965 -0.05157288 0.13629447
0.05657847 -0.117997244 -0.08615688 -0.056920413 0.19991553 -0.05093322 -0.04864476 0.009861356
-0.015569383 -0.16535002 -0.025349736 0.18327071 0.0015886978 -0.22384453 0.14958091 0.11116061
00000000: f2c2 0b3e 656b e2bd a217 263e 35f5 8f3d
00000010: 4594 52bd f1df c13c e3d7 8c3d 9477 083e
00000020: 32dd 4e3d 5500 d3bd e62b d8bd c953 04be
00000030: 8b26 103d a434 c5bd d1d4 273d b7be d6b9
00000040: 7505 f0bd af15 8f3e 0869 08be 97af 87bc
00000050: ac36 d93d ac91 acbd e44b f53c 6621 06be
00000060: 752f 5f3d fdb7 e43d e62a 933d 493d 9e3c
00000070: 378f b7bd bcad 5f3d 8f03 46bd 7a52 f5bc
00000080: 9e1a fd3d 191f 6fbc b2a4 a9bd a5db 92ba
00000090: 64cf 8bbd fcfe 69bd 12a2 803d 10e7 d73d
000000a0: 9bf7 1dbc 4d6a dc3d 3081 ce3c 3cb6 fe3d
000000b0: e579 19be 5c0f f1bd 641a f7bd 385a bc3d
000000c0: f9b5 033e 39f7 c13d 5bee 02bd efb3 4f3c
000000d0: 1cf0 10be 2f5d 443d d19c 79bc 5b67 393e
000000e0: 5898 943e 231a 08be 0013 a5bd b89b c13d
000000f0: b7dc 893c c41c 7f3d 3da4 393d 8411 ef3b
00000100: ffdc c2bd d1ca c2bd 4e05 863d 94e0 dabd
00000110: a231 4abe 8aa7 2dbd 80dc bd3d ffa5 e1bd
00000120: 4756 703e 3991 12be 56d8 383d 3c67 fbbd
00000130: c298 cbbd ac49 f8bd 587c 06bc 12ce ef39
00000140: 6576 113d 4718 c53d a587 d3bd 5904 f2bb
00000150: 8b37 6e3d 7e38 f2bc c3a1 833c 14d9 653d
00000160: 9a2d 0abe e19a 003e 8c3b 003d 363f 8b3d
00000170: e0c3 9f3d 4e2a ab3d c64c 943d 6381 1abe
00000180: 010a 1a3e 6069 7bbd 74bc 573c 67e7 04be
00000190: 26cb 443d 5c08 00be 1aa7 9cbc 8438 dc3d
000001a0: 83e1 1fbb dec5 41be db92 51bd f817 9f3d
000001b0: 347f 803e 2d5c a5bc a566 a93e 8ee4 03be
000001c0: 0c6e 513b dfaf 03bd 8705 bd3d 7f01 523d
000001d0: 05b6 a3bc 1eeb 363d 5de8 dd3c aa28 0abd
000001e0: 08fb 203d 11b1 813d 9807 46bc 1d41 43bd
000001f0: b4a4 93bb ddb6 15be d004 993d 7835 5c3c
00000200: 34aa 12bd d15b 97bd 6203 0a3d fb66 4abb
00000210: cdb2 983e 34c0 11be ee92 343d 3b70 2e3d
00000220: 401f 93bd 65c6 fabd 1d11 2cbe 5120 00be
00000230: 6cc6 c3bd 4760 86bd 6af1 c0bc 6588 623d
00000240: 949c 8cbd d3cc 11be 5ef8 07be 1ce7 67bd
00000250: 4642 053e 3a52 a23d 0ade 96bd df58 f73d
00000260: 773e 223d d6e7 17bd 7d78 893d b6c4 cd3d
00000270: 5e5a 043e b0ec 0bbd 9a1c a1bd 01be d53d
00000280: dd3a 87bc 11d1 93bc a02f ccbd 7fd7 0b3d
00000290: bc81 c4bd a2d7 773d 3179 3d3c 72a0 14bd
000002a0: 9a08 ec3d 409f 4b3d b06c 33be b69f 013e
000002b0: 03d1 cdbd aff1 bcbb 5b96 213d 90be 19be
000002c0: c198 17be 4284 503e 67fa 203e 1f07 4d3e
000002d0: 621e 1c3d 5ef2 623d a87e 283e 5609 693d
000002e0: db9f ce3c c356 23bd afb5 85bd e3b0 883d
000002f0: 3f67 01bc 6d37 38bd 4edc 22bc 005a 9b3c
00000300: 97b3 05bd b101 c6bc fecb fbbb 43eb 21be
00000310: 1658 ddbd f751 abbd f11a 033e bcfa 08be
00000320: 593a ed3d bcbc cbbb 9eed 2b3e 6cf1 473d
00000330: 1db6 23bd 0ea6 c93d 0f48 edbd b753 3dbd
00000340: ebd5 243d 74f2 b5bd a5de 863c 8cc4 a7bc
00000350: dac9 313e 63c6 12be b958 36bd 729f bb3d
00000360: 747d 783c cde1 1c3e 0232 1b3e 4f82 fb3c
00000370: f590 9dbd 12ea 41bb 8443 2fbe a3bb fb3d
00000380: 46f5 a0bd a413 49be 7a6e 303d 9ead 9abc
00000390: 564f 2e3e 0475 d2bb 117d cabd 44f8 c63d
000003a0: 5c09 1a3c 5678 3b3d aa6d 2f3d f6ee 8f3e
000003b0: 9155 28bc 30f0 c3bd 163e 53bd c790 0b3e
000003c0: d3be 673d 8aa8 f1bd 0573 b0bd 6125 69bd
000003d0: a8b6 4c3e 5a9f 50bd ba3f 47bd 8691 213c
000003e0: ba16 7fbc 8451 29be 40aa cfbc 51ab 3b3e
000003f0: da3b d03a 8037 65be bd2b 193e 2da8 e33d

arith.constant2 f4 [32, 32]
0.02780006 0.05471587 0.01783908 -0.11755665 -0.13800064 -0.09509896 0.2290345 0.075181104
-0.10726033 -0.019755626 -0.08191499 0.08729891 0.15073928 -0.08329812 -0.053778164 0.025465
-0.07401762 -0.05689353 0.079327874 0.044006534 0.17540471 -0.06783574 0.043913487 -0.0835497
0.06370246 -0.05977006 -0.059634577 0.14117536 0.0878804 0.011553137 0.04154723 0.05732131
0.15351598 0.22164936 0.042923912 -0.07367472 0.05973635 0.01884902 0.06664308 0.07264163
-0.052835125 -0.0396898 0.0046257507 0.055608083 0.09394016 0.00165015 0.05620223 0.0078089847
-0.2717799 0.056277234 -0.05858384 -0.048844583 0.05316826 -0.057773806 -0.024727626 0.16573733
-0.075465836 0.0092578 0.074384764 0.11387243 0.047341798 -0.08739446 0.04902892 -0.11074157
-0.115662985 0.22386087 0.038003292 -0.039887205 -0.030564662 0.146471 -0.059568424 0.024900885
0.009926756 -0.059260417 -0.120279685 -0.0019266274 0.10841801 0.032159254 0.038118187 0.10621249
-0.033930995 0.00027653703 -0.02134018 -0.13085735 -0.18340026 0.10333755 -0.06546996 0.1323231
0.045492128 -0.0664762 -0.084989436 -0.1412789 0.11042299 0.010427888 0.17895292 0.0024483772
-0.0062918966 -0.01445954 0.18962519 0.07395447 -0.1102034 0.026349014 0.10383987 0.06752579
-0.048157144 0.03659225 0.024362752 0.07553963 0.12513189 -0.1726266 -0.030137343 -0.07316981
-0.032118633 -0.18942079 -0.05336777 0.14961132 -0.0718726 -0.118840955 -0.0007296589 0.044409066
-0.12542738 0.20646136 -0.13866936 -0.009578564 -0.07945056 0.13027349 0.07612042 0.07395684
-0.086597 0.014837625 -0.1264155 -0.012873579 0.06327719 0.07397817 0.017212871 0.08720526
-0.046463843 0.11930063 -0.09653764 0.13897711 -0.16661558 -0.11726727 -0.0006794129 -0.06618656
-0.009362818 0.13060884 -0.15127856 -0.044496693 -0.10747105 -0.057886474 0.0041178297 0.092838496
-0.016943458 0.11554535 0.08216994 0.16051267 -0.09096013 -0.047316767 -0.0892263 -0.07740308
-0.19583806 0.073216446 -0.0054209875 0.0058809193 0.029455055 -0.14620146 0.13749838 0.13419953
-0.018336266 0.2697941 -0.1759038 0.11060616 0.024849629 0.18944344 0.062116336 0.031078767
0.078332946 -0.06847961 0.016303556 0.069523305 0.11189973 -0.03460614 -0.09546081 0.190837
0.052522995 -0.10078996 0.002507685 -0.02438142 -0.043573476 0.002164268 0.02386752 0.008303701
-0.046764556 -0.04799462 0.11302828 0.14125575 -0.12403534 0.029470695 -0.118702315 -0.0404075
0.0438802 -0.0014610465 -0.113045834 0.107382715 0.06395762 0.05861562 -0.06507129 0.03653664
0.005044427 -0.05155052 0.044809718 0.07733127 -0.22380029 -0.07520789 -0.09151757 0.2591417
-0.09347505 -0.11097292 -0.052542552 -0.020450756 0.037606433 0.05862386 0.04723849 0.14161636
0.10014015 0.060300197 -0.043771677 -0.18358618 -0.022212394 0.028592369 0.07374119 0.16355471
-0.02457432 -0.018852342 0.08037239 -0.07161701 0.09419877 -0.14657293 -0.023128754 0.10069817
0.07505747 -0.08509531 -0.06857807 0.13775271 -0.03311928 0.09214384 0.08626851 0.06686697
0.13429266 0.11922692 -0.0064497595 0.12515186 0.02138662 0.040823814 0.11960666 0.071494475
00000000: f4bc e33c c01d 603d 4323 923c 8ac1 f0bd
00000010: 0a50 0dbe 3ec3 c2bd 0588 6a3e 8df8 993d
00000020: 4eab dbbd 8dd6 a1bc 0cc3 a7bd c5c9 b23d
00000030: 665b 1a3e 3498 aabd 7e46 5cbd fa9b d03c
00000040: 8d96 97bd 3109 69bd a776 a23d 3240 343d
00000050: 4b9d 333e 77ed 8abd a1de 333d 1b1c abbd
00000060: 6f76 823d 73d1 74bd 6343 74bd 4690 103e
00000070: a4fa b33d 5e49 3d3c 6e2d 2a3d c0c9 6a3d
00000080: 4b33 1d3e 0df8 623e fcd0 2f3d c6e2 96bd
00000090: 1aae 743d 4369 9a3c 2b7c 883d 23c5 943d
000000a0: a569 58bd c691 22bd 9c93 973b 4dc5 633d
000000b0: b363 c03d d949 d83a 4f34 663d 83e2 ff3b
000000c0: bc26 8bbe f582 663d 9cf5 6fbd 4211 48bd
000000d0: f6c6 593d 3aa4 6cbd 9791 cabc 0cb7 293e
000000e0: d58d 9abd 07ae 173c 0a57 983d f335 e93d
000000f0: 79e9 413d defb b2bd 8cd2 483d 7acc e2bd
00000100: b7e0 ecbd c93b 653e 57a9 1b3d c460 23bd
00000110: be62 fabc 7efc 153e 05fe 73bd f1fc cb3c
00000120: d5a3 223c 0dbb 72bd 3255 f6bd e386 fcba
00000130: 430a de3d 6cb9 033d d121 1c3d ef85 d93d
00000140: 3afb 0abd 2cfc 9039 9ad1 aebc 78ff 05be
00000150: 47cd 3bbe a3a2 d33d 1d15 86bd b57f 073e
00000160: f455 3a3d ad24 88bd f10e aebd 6aab 10be
00000170: 7325 e23d bbd9 2a3c 6f3f 373e f474 203b
00000180: 412c cebb b5e7 6cbc 1b2d 423e 7175 973d
00000190: 52b2 e1bd e3d9 d73c ffa9 d43d f64a 8a3d
000001a0: 6d40 45bd c1e1 153d 6594 c73c 86b4 9a3d
000001b0: 9322 003e 07c5 30be 97e2 f6bc 0eda 95bd
000001c0: d48e 03bd 86f7 41be 2a98 5abd b633 193e
000001d0: f131 93bd e362 f3bd 9446 3fba 48e6 353d
000001e0: 0970 00be 9b6a 533e 57ff 0dbe 69ef 1cbc
000001f0: fab6 a2bd 6a66 053e 06e5 9b3d af76 973d
00000200: c559 b1bd 8319 733c 1173 01be b4eb 52bc
00000210: 7997 813d de81 973d 0202 8d3c ac98 b23d
00000220: df50 3ebd e453 f43d 87b5 c5bd 0450 0e3e
00000230: 469d 2abe d329 f0bd a11a 32ba d28c 87bd
00000240: 8166 19bc 53be 053e c4e8 1abe 2a42 36bd
00000250: c819 dcbd 5e1a 6dbd dcee 863b 1c22 be3d
00000260: 02cd 8abc 0aa3 ec3d b748 a83d 6f5d 243e
00000270: 4e49 babd 3acf 41bd 47bc b6bd 8285 9ebd
00000280: c689 48be 81f2 953d 8aa2 b1bb bab4 c03b
00000290: ba4b f13c d6b5 15be 60cc 0c3e 9a6b 093e
000002a0: f035 96bc 7422 8a3e 2020 34be 7b85 e23d
000002b0: 7391 cb3c 76fd 413e b36d 7e3d e698 fe3c
000002c0: 066d a03d 0a3f 8cbd 098f 853c 3c62 8e3d
000002d0: b02b e53d 2bbf 0dbd f580 c3bd c66a 433e
000002e0: 5a22 573d f76a cebd f957 243b 8bbb c7bc
000002f0: 1a7a 32bd 64d6 0d3b d185 c33c 3f0c 083c
00000300: 318c 3fbd 0296 44bd 5f7b e73d 59a5 103e
00000310: 3e06 febd 876c f13c 331a f3bd 5682 25bd
00000320: b9bb 333d 9680 bfba 9384 e7bd 78eb db3d
00000330: 36fc 823d ef16 703d 1944 85bd 72a7 153d
00000340: b84b a53b a326 53bd 658a 373d db5f 9e3d
00000350: e72b 65be 9806 9abd 906d bbbd 39ae 843e
00000360: d96f bfbd c545 e3bd dc36 57bd 5888 a7bc
00000370: 3409 1a3d 931f 703d 267d 413d e103 113e
00000380: 4716 cd3d 57fd 763d ee49 33bd 04fe 3bbe
00000390: c4f6 b5bc 8b3a ea3c 9f05 973d e37a 273e
000003a0: 1650 c9bc 3a70 9abc 489a a43d f0ab 92bd
000003b0: 49eb c03d 3717 16be 8378 bdbc d83a ce3d
000003c0: bbb7 993d 7346 aebd a972 8cbd 0c0f 0d3e
000003d0: 15a8 07bd e9b5 bc3d 8bad b03d 8df1 883d
000003e0: 0484 093e 3e2d f43d 8158 d3bb cf27 003e
000003f0: fe32 af3c df36 273d 56f4 f43d b26b 923d

arith.constant3 f4 [32, 32]
-0.079093955 0.07777743 0.08845832 -0.16480672 0.085976884 -0.063000835 0.0024201775 0.0317304
0.067657225 -0.14540733 0.017252676 -0.068850026 -0.13050525 0.0032256623 -0.061375167 -0.1931357
-0.039029296 0.19867925 -0.01922996 0.08780102 0.19794703 -0.11783671 0.052732505 -0.005892735
-0.03625083 -0.0029923387 -0.07129245 -0.11645074 0.034813587 -0.014724984 0.06183685 0.024522832
0.0029778997 -0.028155072 -0.129537 -0.13867493 0.013585996 -0.084107056 -0.09481006 -0.030601067
0.13530247 0.026568303 0.05504114 -0.27035487 -0.0126999775 -0.0764658 -0.048785105 0.025316326
-0.21043728 -0.03351642 0.023331767 -0.058423094 -0.018369399 0.09827925 0.047394257 -0.14352678
0.0867237 0.06858771 0.02845567 -0.077225134 -0.25396404 -0.004383132 0.058466665 0.077460006
-0.08283238 -0.06471481 0.060979467 0.2379879 0.04940428 -0.02291989 0.06473504 0.16803296
0.06944688 -0.03433495 0.07208476 -0.07869155 0.039851334 -0.029554768 0.10919127 0.086864576
-0.17832938 -0.01292633 0.05296495 0.074276604 -0.008974937 0.025974995 0.0025978545 0.034660876
0.041582864 0.19668925 -0.042647153 -0.020404845 0.10535156 -0.14490946 0.09736133 0.06949839
-0.13504365 -0.17701 -0.15816265 -0.16290295 -0.01374146 0.11315797 0.0114223305 0.09282173
-0.06386063 -0.1583092 0.18281424 -0.050018776 0.09629103 -0.07429143 0.06774142 0.042546097
-0.10968843 -0.08950532 0.024541851 -0.05484032 0.056087565 -0.055696275 0.08215496 -0.008442408
-0.13323562 0.049285464 0.01989417 -0.08071737 0.10485679 0.005283481 -0.031043153 -0.04334557
0.0075868573 -0.084193476 -0.11351644 -0.07930832 -0.031827495 0.026109876 -0.0008559195 0.07456741
-0.049945384 -0.030553335 0.06685384 -0.069962695 0.0019651954 0.14731112 -0.02860179 0.1713964
-0.0564243 -0.08007291 0.019730644 0.15341137 -0.2147803 -0.10229556 0.07430648 0.07930299
-0.17268853 -0.021606207 -0.019418089 0.16032025 -0.04802414 0.06649532 0.052053854 -0.009488177
-0.09127509 0.10437526 0.13806427 -0.115180336 -0.039530307 -0.113037586 0.14275096 0.06822881
-0.04742698 -0.022525564 -0.00868566 -0.0038652394 -0.029090682 0.027893312 -0.073834196 0.073699
0.09126979 -0.028454162 0.06458601 0.16496614 -0.17397279 -0.19330093 -0.013137621 -0.25145406
0.003497762 -0.022307836 0.06939315 -0.05315819 -0.15054639 -0.13247496 -0.074560635 0.18828811
0.17007126 0.009579202 0.16141781 0.05509725 0.0635348 -0.13366412 0.040508114 0.048396133
-0.17937618 -0.17941062 -0.09962528 0.0015378596 -0.15144986 0.016886408 -0.109422036 0.046888378
-0.029423177 0.048234217 0.08733069 0.04350634 0.088186786 0.13937452 -0.09870696 -0.091710635
-0.022465106 0.0005488915 -0.028934449 -0.06609805 -0.017389692 -0.011667783 -0.057556104 0.042154923
-0.06878103 -0.05157717 0.06956058 -0.035291832 0.055807617 0.0002316803 0.08863924 0.11683191
0.035556052 -0.080146484 -0.04144743 0.005184189 0.0049326713 0.1481048 0.0017480295 -0.034770876
-0.07675284 0.004281511 -0.118035465 0.12712826 -0.033391118 -0.028685113 0.08872052 0.03476639
0.09820827 0.10970142 -0.15566935 0.13723435 0.083933845 0.09203417 0.01392802 0.09610757
00000000: 03fc a1bd c649 9f3d a329 b53d 18c3 28be
00000010: a614 b03d 9506 81bd d79b 1e3b bcf7 013d
00000020: df8f 8a3d a9e5 14be 7c55 8d3c 3e01 8dbd
00000030: 2ba3 05be a265 533b 8764 7bbd 5dc5 45be
00000040: 2fdd 1fbd 9372 4b3e 2688 9dbc 05d1 b33d
00000050: a0b2 4a3e 5f54 f1bd 0afe 573d d817 c1bb
00000060: c07b 14bd 1d1b 44bb c701 92bd ba7d eebd
00000070: b198 0e3d 0f41 71bc a348 7d3d 1be4 c83c
00000080: de28 433b 77a5 e6bc 59a5 04be cd00 0ebe
00000090: cc97 5e3c 5240 acbd c72b c2bd 17af fabc
000000a0: bb8c 0a3e c5a5 d93c d272 613d f46b 8abe
000000b0: 9113 50bc 1a9a 9cbd e4d2 47bd 2f64 cf3c
000000c0: df7c 57be 8348 09bd 4322 bf3c 0e4d 6fbd
000000d0: 6c7b 96bc a246 c93d 7b20 423d aff8 12be
000000e0: 329c b13d b777 8c3d de1b e93c 3628 9ebd
000000f0: 9307 82be 60a0 8fbb be7a 6f3d 5aa3 9e3d
00000100: 06a4 a9bd 3389 84bd 9bc5 793d 1ab3 733e
00000110: 245c 4a3d 7ec2 bbbc ce93 843d d510 2c3e
00000120: 2a3a 8e3d cea2 0cbd 2da1 933d 0929 a1bd
00000130: 273b 233d d71c f2bc ac9f df3d 0ee6 b13d
00000140: fa9b 36be f5c8 53bc c7f1 583d 551e 983d
00000150: 9d0b 13bc 83c9 d43c c440 2a3b 90f8 0d3d
00000160: cb52 2a3d e868 493e c8ae 2ebd 1028 a7bc
00000170: 8fc2 d73d 2563 14be 6165 c73d 2c55 8e3d
00000180: e248 0abe 1c42 35be 64f5 21be 08d0 26be
00000190: dc23 61bc 5ebf e73d ba24 3b3c 5219 be3d
000001a0: 5dc9 82bd cf1b 22be a833 3b3e 7de0 4cbd
000001b0: 3b34 c53d 1b26 98bd 03bc 8a3d d144 2e3d
000001c0: 54a4 e0bd 914e b7bd fe0b c93c 3ea0 60bd
000001d0: 13bc 653d c721 64bd dc40 a83d 0752 0abc
000001e0: eb6e 08be 8edf 493d 19f9 a23c 264f a5bd
000001f0: 28bf d63d 0d21 ad3b 364e febc 208b 31bd
00000200: 2c9b f83b a16d acbd 4f7b e8bd 676c a2bd
00000210: 8c5d 02bd 61e4 d53c c95f 60ba ccb6 983d
00000220: 8893 4cbd fd4a fabc abea 883d 9a48 8fbd
00000230: 82ca 003b bad8 163e 4d4e eabc 8a82 2f3e
00000240: 2b1d 67bd 44fd a3bd 29a2 a13c df17 1d3e
00000250: 5eef 5bbe 5680 d1bd ff2d 983d 9b69 a23d
00000260: 43d5 30be 80ff b0bc af12 9fbc fe2a 243e
00000270: f6b4 44bd b32e 883d 6c36 553d 4c74 1bbc
00000280: 6fee babd b2c2 d53d b860 0d3e abe3 ebbd
00000290: 88ea 21bd 4080 e7bd 4f2d 123e 8cbb 8b3d
000002a0: cb42 42bd 8887 b8bc 4c4e 0ebc f54f 7dbb
000002b0: 954f eebc 8480 e43c 6236 97bd 80ef 963d
000002c0: a8eb ba3d b418 e9bc ac45 843d e2ec 283e
000002d0: ec25 32be aef0 45be 2d3f 57bc 96be 80be
000002e0: b53a 653b ecbe b6bc ff1d 8e3d 67bc 59bd
000002f0: d528 1abe 84a7 07be 3fb3 98bd 99ce 403e
00000300: 2927 2e3e 16f2 1c3c b64a 253e a7ad 613d
00000310: 891e 823d 3fdf 08be d6eb 253d 063b 463d
00000320: 64ae 37be 6bb7 37be 5708 ccbd 0192 c93a
00000330: ac15 1bbe 5d55 8a3c a918 e0bd 070e 403d
00000340: e008 f1bc 3e91 453d 6fda b23d b433 323d
00000350: 469b b43d 32b8 0e3e e026 cabd c9d2 bbbd
00000360: be08 b8bc 7ce3 0f3a f007 edbc 6a5e 87bd
00000370: d474 8ebc 3b2a 3fbc f3bf 6bbd a4aa 2c3d
00000380: 12dd 8cbd 9542 53bd c775 8e3d 2b8e 10bd
00000390: 8796 643d 35ef 7239 7d88 b53d 9245 ef3d
000003a0: 39a3 113d d723 a4bd c8c4 29bd 21e0 a93b
000003b0: 3fa2 a13b c9a8 173e 231e e53a e86b 0ebd
000003c0: 9830 9dbd eb4b 8c3b 94bc f1bd e92d 023e
000003d0: 20c5 08bd 0bfd eabc 1bb3 b53d 3467 0e3d
000003e0: 6b21 c93d 23ab e03d c967 1fbe 2987 0c3e
000003f0: 82e5 ab3d 697c bc3d 5a32 643c 0cd4 c43d

arith.constant4 f4 [32]
0.034036875 0.038399085 0.037194874 0.038127143 0.037607763 0.03173563 0.031125966 0.043776046
0.025958147 0.046409667 0.040357243 0.032349307 0.037048094 0.031478982 0.029531967 0.029834175
0.033909366 0.03682457 0.035844997 0.046110734 0.035242084 0.039571356 0.033707563 0.039212603
0.040847115 0.032321732 0.041225817 0.033186868 0.028054865 0.036645547 0.04342193 0.030874336
00000000: 406a 0b3d 5c48 1d3d a759 183d 352b 1c3d
00000010: 990a 1a3d 38fd 013d e2fb fe3c 834e 333d
00000020: 2ea6 d43c 1018 3e3d a34d 253d b580 043d
00000030: bebf 173d 1bf0 003d 06ed f13c cd66 f43c
00000040: 8ce4 0a3d 5cd5 163d 34d2 123d 9cde 3c3d
00000050: 015a 103d 9315 223d f110 0a3d 659d 203d
00000060: 4e4f 273d cb63 043d 67dc 283d f4ee 073d
00000070: 51d3 e53c a419 163d 32db 313d 2dec fc3c

arith.constant5 f4 [32]
-0.011839603 -0.025111847 -0.02464616 -0.030435815 0.004295217 -0.02080466 0.021314546 -0.033709683
0.014059066 0.015009217 0.015365194 -0.03477204 -0.008235747 0.016838528 -0.019393394 0.026051667
0.019957423 -0.0072886716 0.0014662646 -0.03387365 0.0011862218 0.019889701 -0.015264133 0.0037408862
0.00111035 0.009455414 0.022069858 -0.01843896 -0.01160866 0.020536914 -0.019751394 0.004757751
00000000: e5fa 41bc 5cb7 cdbc bee6 c9bc 8854 f9bc
00000010: e4be 8c3b 896e aabc d89b ae3c 2a13 0abd
00000020: ff57 663c 38e9 753c 4bbe 7b3c 206d 0ebd
00000030: 3aef 06bc f4f0 893c e5de 9ebc 4e6a d53c
00000040: c07d a33c cfd5 eebb ad2f c03a 19bf 0abd
00000050: 007b 9b3a baef a23c 6a16 7abc a829 753b
00000060: 2a89 913a e1ea 1a3c d9cb b43c 4d0d 97bc
00000070: 4032 3ebc 083d a83c adcd a1bc e8e6 9b3b

arith.constant6 f4 [32]
1.0346482 1.0360304 1.0452183 1.0305395 1.0339481 1.0297374 1.0278543 1.0442691
1.0292814 1.0478303 1.0347574 1.0306952 1.0344208 1.0320835 1.0264947 1.0363684
1.031632 1.0288265 1.0309662 1.0425379 1.028185 1.033226 1.0134017 1.0401133
1.0355343 1.0421894 1.0394286 1.0269624 1.0271896 1.0281607 1.0351204 1.0314982
00000000: 5a6f 843f a59c 843f b7c9 853f b8e8 833f
00000010: 6958 843f 6fce 833f bb90 833f 9caa 853f
00000020: 7ebf 833f 4e1f 863f ee72 843f d2ed 833f
00000030: e767 843f 501b 843f 2e64 833f b8a7 843f
00000040: 840c 843f 96b0 833f b3f6 833f e271 853f
00000050: 919b 833f c040 843f 26b7 813f 6f22 853f
00000060: 638c 843f 7666 853f ff0b 853f 8173 833f
00000070: f37a 833f c59a 833f d37e 843f 2208 843f

arith.constant7 f4 [32]
0.027649073 0.03244219 0.04578479 0.035151877 0.04046728 0.034927428 0.028876202 0.04490531
0.031073024 0.039649248 0.03154363 0.012409681 0.03137681 0.03209475 0.026454352 0.03471456
0.03357072 0.042570375 0.03409478 0.025438126 0.03870968 0.04703909 0.031237151 0.03986697
0.040673755 0.03454785 0.037357587 0.03235377 0.02091023 0.035201456 0.03595917 0.025198227
00000000: 4f80 e23c 1ae2 043d d588 3b3d 6afb 0f3d
00000010: 05c1 253d 1010 0f3d c98d ec3c a1ee 373d
00000020: db8c fe3c 4067 223d e533 013d fa51 4b3c
00000030: f884 003d c975 033d ccb6 d83c db30 0e3d
00000040: 7481 093d 465e 2e3d f8a6 0b3d 9e63 d03c
00000050: 0b8e 1e3d 10ac 403d 0ee5 ff3c 8c4b 233d
00000060: 8699 263d 0c82 0d3d 4504 193d 6385 043d
00000070: ee4b ab3c 672f 103d ec49 133d 836c ce3c

arith.constant8 f4 [32, 12]
-0.12846127 -0.010574488 0.022431836 0.021281654 0.018670052 -0.023282925 -0.06139352 0.05383783
-0.073486894 0.017992325 0.102817 -0.018227112 -0.041839574 -0.17645189 0.055195186 -0.12284591
0.17607868 -0.07845918 -0.11174207 -0.1319656 -0.019844834 -0.11620715 -0.1808784 0.01740201
0.027472708 0.0170072 -0.05933239 0.018520199 -0.00782391 -0.029765591 -0.20020369 0.10953526
0.013350702 -0.14009437 -0.13041334 0.03496422 0.20449561 0.08515317 0.06866553 0.112442486
0.043555085 0.084401265 -0.065362014 0.07424842 0.09004254 -0.06593681 0.10285025 0.118890226
-0.07126389 -0.042149384 0.036185917 -0.0118053965 -0.11748396 -0.054186136 0.06799259 -0.11989596
0.007291901 -0.042685326 -0.04666734 -0.18731382 0.116605274 -0.14354949 -0.035848703 0.09813793
0.14996704 -0.0132437935 -0.049047485 0.0021969678 -0.059768405 -0.14824934 0.09138716 -0.27076933
0.07554289 -0.07922026 -0.025660623 -0.092464395 0.047048125 -0.09068201 0.025842559 -0.13389534
-0.043416716 0.0032191894 -0.0069188336 0.07377679 0.09204429 0.05487133 -0.03945025 0.07926089
0.006707945 0.07862856 0.060278274 0.0053239963 0.034049205 0.22095501 0.15578018 0.10082918
-0.030276861 0.014353458 -0.006423761 -0.12300849 0.03905157 -0.08678563 -0.039864596 0.04373843
-0.008517193 0.004452306 -0.014139175 -0.08726339 0.053506166 -0.03820849 0.08638002 -0.07213579
-0.05361444 -0.25269207 0.172051 -0.06502126 -0.111776695 -0.06515131 -0.1728376 0.047329724
0.00070255797 0.035058364 0.0541056 -0.09060733 0.042315036 -0.033386793 -0.14045785 -0.102976896
-0.17458613 0.03734497 -0.046399053 0.0069435267 -0.10577614 -0.03489713 -0.25313848 -0.19288284
-0.067363426 -0.18140797 0.033319883 -0.07801632 0.076499715 0.0057688183 0.025953747 -0.018409213
-0.02268323 0.016974071 0.031452745 0.022536652 0.08802959 0.11511207 0.16643982 0.15056646
-0.012475526 0.14856462 0.18997674 -0.06407702 0.0035163928 0.060668062 -0.032650016 -0.10919242
-0.016403997 0.065669216 0.027198933 -0.068616934 0.014637065 -0.11694321 -0.038823143 -0.08075669
-0.18341078 -0.13622946 -0.038231988 0.09177362 -0.06060101 -0.03469111 -0.039306685 -0.038968097
-0.081681415 0.17850049 -0.05800242 -0.08726749 0.095525704 0.07762849 0.051541056 0.08997737
-0.15905483 0.013423172 0.0009423564 -0.007821272 0.01991686 0.010952406 0.1014158 -0.039829243
0.15747938 0.19513391 0.040800754 -0.05594602 -0.016680239 0.03158125 -0.14790644 0.16011685
-0.16160548 -0.054146867 0.026782298 0.01595386 -0.05870191 0.033110823 0.013936642 0.19046885
-0.09107718 -0.047435302 -0.0067043053 0.15269606 0.12137038 -0.045442343 0.12334097 0.040644553
-0.04733084 -0.0011880198 -0.0705114 -0.019488983 -0.0019146677 0.015514314 0.0005147642 -0.06685372
-0.07077125 0.030826312 0.15504083 -0.032834213 0.043669593 0.028956199 -0.04651378 -0.10551316
0.017393282 -0.31564912 -0.03805939 -0.105673544 -0.024355983 -0.0024626951 0.0024154992 0.09154736
-0.0314014 -0.17102939 -0.10353999 -0.06653097 0.05521772 0.010420795 -0.12761909 -0.08026536
0.07962128 0.13919435 0.11645574 0.00028631746 0.118176416 0.06352042 0.0061473516 -0.05419682
00000000: 5a8b 03be 9e40 2dbc f8c2 b73c dd56 ae3c
00000010: f0f1 983c d5bb bebc c677 7bbd 0e85 5c3d
00000020: 4c80 96bd a464 933c b891 d23d 0651 95bc
00000030: f95f 2bbd ceaf 34be 5914 623d a396 fbbd
00000040: f84d 343e 35af a0bd 07d9 e4bd fe21 07be
00000050: a291 a2bc 04fe edbd 3038 39be a98e 8e3c
00000060: 720e e13c af52 8b3c 8506 73bd acb7 973c
00000070: db2f 00bc f8d6 f3bc 3202 4dbe 0654 e03d
00000080: e7bc 5a3c e674 0fbe 138b 05be a436 0f3d
00000090: 4c67 513e c964 ae3d 83a0 8c3d 3f48 e63d
000000a0: d166 323d 92da ac3d 85dc 85bd 8e0f 983d
000000b0: 3968 b83d e109 87bd 27a3 d23d b87c f33d
000000c0: cdf2 91bd d5a4 2cbd af37 143d 6c6b 41bc
000000d0: 6e9b f0bd 48f2 5dbd b33f 8b3d 038c f5bd
000000e0: e6f0 ee3b cfd6 2ebd 4126 3fbd 32cf 3fbe
000000f0: bfce ee3d a3fe 12be 17d6 12bd 8afc c83d
00000100: f690 193e 7ffc 58bc 04e6 48bd 01fb 0f3b
00000110: b7cf 74bd adce 17be 3129 bb3d 47a2 8abe
00000120: 3bb6 9a3d 3b3e a2bd 3a36 d2bc f95d bdbd
00000130: 89b5 403d 7db7 b9bd c6b3 d33c dc1b 09be
00000140: bad5 31bd 09f9 523b 62b7 e2bb 4918 973d
00000150: b781 bc3d c2c0 603d 9696 21bd 8953 a23d
00000160: 52ce db3b 0308 a13d 5ae6 763d eb74 ae3b
00000170: 2e77 0b3d 0842 623e d784 1f3e 877f ce3d
00000180: 2e07 f8bc c42a 6b3c 6a7e d2bb e0eb fbbd
00000190: 8af4 1f3d aabc b1bd 0f49 23bd 1127 333d
000001a0: b28b 0bbc a6e4 913b 00a8 67bc 26b7 b2bd
000001b0: 4829 5b3d 8180 1cbd 02e8 b03d eebb 93bd
000001c0: d19a 5bbd db60 81be 232e 303e de29 85bd
000001d0: 2eeb e4bd 0d6e 85bd 57fc 30be d0dc 413d
000001e0: de2b 383a 5c99 0f3d d59d 5d3d 5690 b9bd
000001f0: 8852 2d3d 97c0 08bd 2fd4 0fbe 8de5 d2bd
00000200: b5c6 32be 0af7 183d ef0c 3ebd 8686 e33b
00000210: 29a1 d8bd 4bf0 0ebd 5e9b 81be 1483 45be
00000220: d6f5 89bd 03c3 39be 6e7a 083d 05c7 9fbd
00000230: e2ab 9c3d 5b08 bd3b f49c d43c ebce 96bc
00000240: 2ed2 b9bc 350d 8b3c 98d4 003d c99e b83c
00000250: dc48 b43d e1bf eb3d 336f 2a3e 182e 1a3e
00000260: 2666 4cbc 5321 183e 4389 423e d03a 83bd
00000270: 4873 663b 137f 783d 06bc 05bd 47a0 dfbd
00000280: ad61 86bc 957d 863d 4cd0 de3c 0987 8cbd
00000290: 4dd0 6f3c ec7f efbd 0405 1fbd c363 a5bd
000002a0: 09d0 3bbe bc7f 0bbe 2599 1cbd cff3 bb3d
000002b0: c438 78bd 4418 0ebd 0c00 21bd 039d 1fbd
000002c0: 9648 a7bd d5c8 363e f293 6dbd 4cb9 b2bd
000002d0: fba2 c33d b0fb 9e3d b71c 533d 0e46 b83d
000002e0: 45df 22be ddec 5b3c 7808 773a cb24 00bc
000002f0: af28 a33c b871 333c 16b3 cf3d fd23 23bd
00000300: 4642 213e 2fd1 473e b11e 273d a727 65bd
00000310: ffa4 88bc 575b 013d c974 17be acf5 233e
00000320: e87b 25be 1bc9 5dbd 8d66 db3c abb1 823c
00000330: 6a71 70bd 379f 073d 8356 643c 440a 433e
00000340: ac86 babd 854b 42bd caaf dbbb 5b5c 1c3e
00000350: 0991 f83d c021 3abd 319a fc3d e77a 263d
00000360: fcdd 41bd 54b7 9bba 4868 90bd 5ca7 9fbc
00000370: 96f5 faba c02f 7e3c 3ef1 063a 9aea 88bd
00000380: 84f0 90bd 7687 fc3c 06c3 1e3e 2b7d 06bd
00000390: e3de 323d 8d35 ed3c 3c85 3ebd 4917 d8bd
000003a0: 5b7c 8e3c c39c a1be 2ae4 1bbd 5f6b d8bd
000003b0: 3386 c7bc 2b65 21bb 5a4d 1e3b 2f7d bb3d
000003c0: c19e 00bd 5422 2fbe c60c d4bd 6441 88bd
000003d0: fa2b 623d fbbb 2a3c 94ae 02be 2a62 a4bd
000003e0: 7b10 a33d f788 0e3e 5980 ee3d e11c 9639
000003f0: 7a06 f23d fe16 823d b96f c93b 7cfd 5dbd

arith.constant9 f4 [32, 12]
-0.013641121 -0.0013480592 0.078810796 -0.0069331652 0.07403046 -0.12049427 0.029983383 -0.07266112
0.023671178 0.095290855 0.15261868 0.009835369 0.17322165 -0.0013932403 -0.081773035 -0.084359266
-0.09484668 -0.034870483 -0.05566447 -0.14453006 0.0478195 -0.05314874 -0.07626251 -0.02975087
-0.014023971 0.01440617 -0.25090784 -0.033257954 -0.115386486 -0.14049539 -0.03144521 -0.07305185
0.011423958 -0.022775918 0.018279297 -0.003278246 -0.07784494 -0.16118646 -0.013223602 -0.15381588
-0.008156666 -0.08030713 0.0006084404 -0.036881693 -0.11345215 -0.17633247 -0.11365041 0.05254756
0.1336884 -0.06394954 -0.09653348 -0.048835896 -0.046085924 -0.010475048 0.1393012 -0.09455286
-0.045223534 0.08369601 0.15526782 0.05969751 -0.15411784 0.21158403 -0.012904411 -0.0074190055
0.19715992 -0.050156787 0.06719911 0.17312405 -0.04933601 -0.063695736 0.0482492 0.0050288825
-0.022847794 -0.06262572 0.15586533 0.05400284 -0.07240773 -0.07222361 0.07934928 0.00592394
-0.1580411 -0.057468235 0.04597099 0.0047329846 0.025978401 0.10341727 0.030829076 0.14856037
0.21770953 0.14177097 0.13087519 0.05551148 0.03132257 -0.09722905 0.028539458 0.060719013
0.07521963 -0.04005386 0.20349091 -0.13512832 -0.080848336 0.16144708 -0.10526163 0.06262013
-0.02136531 -0.05919526 0.01802551 0.05940634 0.055003375 -0.047910307 0.0005729975 -0.053278368
-0.14438438 -0.09579181 -0.018521437 -0.04762671 -0.07851941 0.092011645 0.14139247 -0.009144159
0.091463156 -0.028183883 0.15330318 -0.0042400584 0.0616109 -0.016086677 0.18373667 0.22598493
0.12635201 -0.13619436 0.07826257 0.039474364 -0.34384546 0.00898491 0.05386171 -0.06523162
-0.07872334 0.051192027 -0.010596367 -0.087688155 -0.13996273 -0.11644117 -0.14885315 -0.048966043
-0.075487256 0.04802734 0.07010366 -0.024632229 0.21380769 0.07000268 0.12259076 -0.06923551
0.14834996 -0.0070545515 0.00280995 0.1317937 -0.023378378 0.09601972 -0.002177661 -0.046132427
-0.011261296 -0.06641814 -0.03076193 -0.0129633425 0.07782355 -0.015652886 0.08620243 0.052001033
-0.10229367 -0.031909034 -0.06086368 0.018496431 0.04092199 -0.011166292 0.10824435 0.087953806
0.11519948 0.05427777 0.21919888 -0.03833128 0.17604363 0.062352102 -0.061712317 -0.03418964
-0.065550506 0.04915318 -0.12525155 -0.19319569 -0.0880455 -0.107249096 -0.01341939 -0.033510245
0.03325918 -0.09744405 -0.11806913 0.051507223 -0.0012054918 0.07957719 0.016294232 -0.11526303
0.08411239 0.05032605 0.04819499 0.15433626 -0.058108117 0.1804534 -0.018990062 -0.041300513
-0.0341623 -0.0082327975 -0.029050231 0.043918207 -0.09069084 -0.017244719 -0.033202637 -0.12039476
0.098473795 0.08466221 -0.002794755 -0.024363639 0.13373095 0.14295757 -0.061874725 -0.021161845
-0.12201323 0.09773751 -0.06628529 0.06720604 -0.06627938 0.050831113 -0.114699066 -0.08011638
-0.19696341 -0.039207686 -0.022318233 -0.0004865552 -0.10662136 0.013253809 0.059565254 -0.21212733
-0.034086976 0.014545424 -0.11925606 -0.08123472 -0.17682762 0.024668224 -0.13788627 -0.15403509
0.01828735 0.0028406582 0.1069624 0.00473535 -0.04837191 -0.17287378 -0.1352116 -0.07419501
00000000: 027f 5fbc 5cb1 b0ba 8e67 a13d 9b2f e3bb
00000010: 489d 973d b3c5 f6bd b69f f53c 5acf 94bd
00000020: 0fea c13c da27 c33d 1248 1c3e 8724 213c
00000030: 0461 313e 639d b6ba 9f78 a7bd 8dc4 acbd
00000040: fa3e c2bd 5ad4 0ebd 6d00 64bd b0ff 13be
00000050: 61de 433d 7eb2 59bd 852f 9cbd 19b8 f3bc
00000060: ccc4 65bc db07 6c3c fe76 80be 7e39 08bd
00000070: c04f ecbd 06de 0fbe b1cc 00bd 359c 95bd
00000080: 8e2b 3b3c 9094 babc 77be 953c d7d7 56bb
00000090: 2b6d 9fbd 100e 25be cfa7 58bc e981 1dbe
000000a0: 89a3 05bc 1178 a4bd be7f 1f3a 4211 17bd
000000b0: 9a59 e8bd 8090 34be 8cc1 e8bd 1c3c 573d
000000c0: 9de5 083e faf7 82bd 58b3 c5bd 2608 48bd
000000d0: 98c4 3cbd 899f 2bbc f9a4 0e3e eea4 c1bd
000000e0: 503c 39bd d068 ab3d 87fe 1e3e 6085 743d
000000f0: 11d1 1dbe 7ca9 583e 066d 53bc 211b f3bb
00000100: 4ae4 493e 3471 4dbd b09f 893d 6e47 313e
00000110: 8e14 4abd e972 82bd f4a0 453d 53c9 a43b
00000120: 4c2b bbbc ea41 80bd 299b 1f3e 1532 5d3d
00000130: 814a 94bd f9e9 93bd e081 a23d 9c1d c23b
00000140: 87d5 21be d063 6bbd 144c 3c3d 2717 9b3b
00000150: a8d0 d43c 6fcc d33d 428d fc3c 3620 183e
00000160: 3fef 5e3e 692c 113e 2504 063e 0160 633d
00000170: 184c 003d 0620 c7bd 95cb e93c 80b4 783d
00000180: c00c 9a3d 840f 24bd ec5f 503e 145f 0abe
00000190: d093 a5bd 6252 253e 6993 d7bd fc3e 803d
000001a0: 4d06 afbc bb76 72bd 3caa 933c 1054 733d
000001b0: 384b 613d 993d 44bd 3635 163a 6b3a 5abd
000001c0: 80d9 13be 7f2e c4bd 45ba 97bc 3a14 43bd
000001d0: c9ce a0bd 9a70 bc3d 30c9 103e 62d1 15bc
000001e0: 0951 bb3d e3e1 e6bc 82fb 1c3e 30f0 8abb
000001f0: b65b 7c3d 35c8 83bc 7725 3c3e 9868 673e
00000200: 6c62 013e 8976 0bbe 2048 a03d dfaf 213d
00000210: 830c b0be 7235 133c 199e 5c3d 2898 85bd
00000220: b439 a1bd bbae 513d 629c 2dbc d995 b3bd
00000230: 6452 0fbe b578 eebd f66c 18be 9e90 48bd
00000240: 1099 9abd 51b8 443d 8292 8f3d 87c9 c9bc
00000250: 67f0 5a3e 915d 8f3d dd10 fb3d 59cb 8dbd
00000260: 0de9 173e de29 e7bb 2327 383b edf4 063e
00000270: 0384 bfbc fda5 c43d 17b7 0ebb 5bf5 3cbd
00000280: 4d81 38bc 3c06 88bd 7100 fcbc 3364 54bc
00000290: f461 9f3d 7b3a 80bc e68a b03d 09ff 543d
000002a0: 587f d1bd 0cb3 02bd 324c 79bd d485 973c
000002b0: d19d 273d d3f2 36bc 37af dd3d 2021 b43d
000002c0: b4ed eb3d 5e52 5e3d ac75 603e 4301 1dbd
000002d0: c844 343e eb64 7f3d 0ec6 7cbd 700a 0cbd
000002e0: 583f 86bd d854 493d f141 00be 17d5 45be
000002f0: 3351 b4bd 6aa5 dbbd 00dd 5bbc 0a42 09bd
00000300: c73a 083d bf90 c7bd 3ace f1bd 3df9 523d
00000310: 9801 9eba 5ef9 a23d 7b7b 853c 060f ecbd
00000320: 1e43 ac3d b022 4e3d 1c68 453d 530a 1e3e
00000330: c702 6ebd c7c8 383e 0c91 9bbc ba2a 29bd
00000340: c5ed 0bbd dbe2 06bc c0fa edbc 94e3 333d
00000350: 1ebc b9bd cc44 8dbc 7dff 07bd 8791 f6bd
00000360: a1ac c93d 6163 ad3d 3528 37bb 4196 c7bc
00000370: c4f0 083e 7863 123e 5a70 7dbd 9b5b adbc
00000380: 13e2 f9bd 9b2a c83d 95c0 87bd 52a3 893d
00000390: 7cbd 87bd 4934 503d 58e7 eabd 0e14 a4bd
000003a0: c7b0 49be 3d98 20bd bad4 b6bc 5518 ffb9
000003b0: 4d5c dabd 8126 593c b2fa 733d e837 59be
000003c0: c99e 0bbd ee4f 6e3c 853c f4bd 645e a6bd
000003d0: 4d12 35be 0415 ca3c 0f32 0dbe 60bb 1dbe
000003e0: 5acf 953c 562a 3a3b 1a0f db3d ff2a 9b3b
000003f0: a021 46bd d305 31be e974 0abe 8ef3 97bd

arith.constant10 f4 [32, 12]
0.08600118 0.20054351 -0.043705057 -0.24105293 -0.085823976 0.05497027 0.23478624 -0.03549968
0.076670334 -0.072694495 -0.09037846 0.017835354 0.011543787 -0.12197959 0.032159757 0.00219097
0.07731932 -0.008742882 -0.002180475 0.08408855 0.06860112 0.04144154 -0.11676095 0.033193227
-0.047428016 -0.14795275 -0.017996244 0.002744641 -0.091368265 0.0023413529 0.07906788 -0.07833936
-0.12662664 -0.07287639 -0.019837558 -0.066494964 0.024776697 -0.10067628 0.06559253 -0.19071084
-0.01764705 0.07417892 -0.06501659 0.079624616 0.051606078 0.043595918 -0.046347965 -0.08715324
-0.03342518 0.057252087 0.099498294 0.020617554 -0.019328015 0.046682093 -0.0259615 0.022154095
-0.03099101 -0.14195207 0.107367225 -0.10376835 -0.020802312 0.18806602 -0.0033806274 -0.0423026
-0.043264505 0.057815995 -0.03711671 -0.051434126 -0.034773737 -0.123783015 -0.12423496 0.090520576
-0.013622298 -0.074719995 -0.082338855 0.004664341 -0.1931452 -0.023495087 -0.03157762 0.019853044
0.016608747 -0.107582904 0.082880504 0.09136342 -0.10426068 -0.09564619 0.085543 -0.08656078
0.010278885 0.0056416937 0.06722214 0.050214905 -0.113827124 -0.11909802 -0.027302243 0.041649688
0.07918357 -0.06421996 -0.014810715 -0.0043227766 -0.10496519 -0.17512205 -0.08423957 0.018034484
-0.023471301 0.1036753 0.060779 0.1170689 -0.057065602 0.14512919 0.13235249 0.062266696
0.05700552 0.0057941577 0.05463535 0.048974052 0.1163573 0.07508301 0.11317464 0.040273402
0.026064435 0.023062576 0.054766957 0.17989764 0.022968866 -0.07247403 -0.069705576 -0.008948089
0.03670958 -0.07289375 -0.04353663 -0.10164267 0.066743195 -0.078939356 -0.23988368 -0.08203923
0.09908209 -0.026612882 0.2194896 0.10499611 -0.08408149 -0.057978075 0.16191012 0.07621475
0.11411673 0.014770875 0.046527486 0.031328484 -0.12182679 -0.12985873 0.026449397 0.0054861633
0.03155821 0.11385189 0.005186325 -0.20549145 -0.030958757 0.064098805 0.042221405 -0.049975365
-0.030948207 -0.013059926 0.06148926 0.027383784 0.026437886 -0.09938846 -0.0023450993 0.010352657
0.1544036 0.069729336 -0.019724844 -0.017878646 0.1036989 0.0053812526 -0.061552655 -0.2606509
-0.03939263 -0.064438894 -0.022441471 0.058447286 0.10525126 -0.07233531 -0.13352343 0.09683654
-0.061215773 0.13540731 -0.10259196 0.15413564 0.017405782 -0.046242937 0.06556829 0.01781948
-0.052996296 -0.061652772 -0.050638758 0.04659147 0.02515685 0.014946206 -0.1340217 0.020860927
0.17265885 -0.0027791066 -0.028187735 -0.022393016 0.0073509067 0.09619848 0.069489606 -0.033453032
-0.09072825 0.038492057 0.10599587 0.009773241 -0.13906276 0.034257475 0.036402706 0.05121789
0.11268028 0.076761074 0.041184396 -0.061046124 0.05658683 -0.062869914 0.0019555187 0.003131085
0.06395601 -0.07951808 0.13894127 0.017675659 0.12394164 -0.013419856 0.072120674 -0.105823375
-0.004508237 -0.069267 -0.115353584 0.18412942 0.014383241 0.06953581 0.05307255 -0.022920422
-0.044866372 0.019570129 0.062205 0.18007846 0.0407662 -0.076868184 -0.002306449 -0.114891626
-0.14491647 -0.104536094 -0.013513489 -0.16484505 -0.0798876 0.19023208 0.045650877 -0.121419415
00000000: 6321 b03d 475b 4d3e 1304 33bd 94d6 76be
00000010: 7bc4 afbd 8128 613d ce6b 703e 1d68 11bd
00000020: 5605 9d3d dae0 94bd 5818 b9bd 731b 923c
00000030: 2722 3d3c 6fd0 f9bd f3b9 033d 6096 0f3b
00000040: 9759 9e3d 4e3e 0fbc 4de6 0ebb 9e36 ac3d
00000050: be7e 8c3d 9bbe 293d 5d20 efbd 9ff5 073d
00000060: e143 42bd ed80 17be dc6c 93bc 6fdf 333b
00000070: 491f bbbd 6271 193b 57ee a13d 6370 a0bd
00000080: 6aaa 01be 3740 95bd 6082 a2bc 832e 88bd
00000090: 80f8 ca3c 5e2f cebd 6055 863d b449 43be
000000a0: 8c90 90bc 1eeb 973d 6b27 85bd 3b12 a33d
000000b0: e560 533d a291 323d 5dd7 3dbd 667d b2bd
000000c0: d7e8 08bd 2a81 6a3d c3c5 cb3d 25e6 a83c
000000d0: c955 9ebc b935 3f3d 36ad d4bc 817c b53c
000000e0: dce0 fdbc e25b 11be 59e3 db3d 8084 d4bd
000000f0: 9c69 aabc 6194 403e 848d 5dbb 7e45 2dbd
00000100: 1f36 31bd 77d0 6c3d b107 18bd 97ac 52bd
00000110: e86e 0ebd f381 fdbd e66e febd da62 b93d
00000120: 0f30 5fbc cc06 99bd 46a1 a8bd 54d7 983b
00000130: dbc7 45be c578 c0bc 8957 01bd daa2 a23c
00000140: 110f 883c 6d54 dcbd 41bd a93d bf1c bb3d
00000150: a086 d5bd 26e2 c3bd 2b31 af3d c746 b1bd
00000160: c568 283c f5dd b83b c3ab 893d 25ae 4d3d
00000170: 321e e9bd aae9 f3bd f4a8 dfbc dd98 2a3d
00000180: ff2a a23d c185 83bd a4a8 72bc 14a6 8dbb
00000190: fdf7 d6bd 3253 33be cc85 acbd 0ebd 933c
000001a0: e346 c0bc b753 d43d 67f3 783d d2c1 ef3d
000001b0: 9fbd 69bd bf9c 143e 6987 073e 5d0b 7f3d
000001c0: 9f7e 693d ebdc bd3b 51c9 5f3d 0499 483d
000001d0: bc4c ee3d 1fc5 993d 1bc8 e73d b9f5 243d
000001e0: 1585 d53c baed bc3c 5153 603d 1637 383e
000001f0: 3429 bc3c 446d 94bd ccc1 8ebd 019b 12bc
00000200: c95c 163d 5249 95bd 7753 32bd 082a d0bd
00000210: a8b0 883d f5aa a1bd 11a4 75be 2f04 a8bd
00000220: 8deb ca3d 4203 dabc e2c1 603e 3308 d73d
00000230: eb32 acbd 6b7a 6dbd c4cb 253e 7b16 9c3d
00000240: 08b6 e93d 8a01 723c 9b93 3e3d 4c52 003d
00000250: 5380 f9bd b0f9 04be 68ac d83c 46c5 b33b
00000260: 2e43 013d 2e2b e93d 0cf2 a93b 5a6c 52be
00000270: 389d fdbc 3c46 833d 5af0 2c3d f8b2 4cbd
00000280: 1887 fdbc 4df9 55bc 2adc 7b3d f553 e03c
00000290: 4494 d83c 2d8c cbbd 3db0 19bb 319e 293c
000002a0: fa1b 1e3e 41ce 8e3d ff95 a1bc 3d76 92bc
000002b0: 1760 d43d 3855 b03b a31e 7cbd 0974 85be
000002c0: 2b5a 21bd 8af8 83bd 2dd7 b7bc 6c66 6f3d
000002d0: f98d d73d 8924 94bd 5eba 08be 3c52 c63d
000002e0: 64bd 7abd 37a8 0a3e bc1b d2bd bcd5 1d3e
000002f0: 9296 8e3c 3c69 3dbd ab48 863d 28fa 913c
00000300: a512 59bd 9e87 7cbd 966a 4fbd b2d6 3e3d
00000310: bd15 ce3c eee0 743c fc3c 09be 89e4 aa3c
00000320: 7bcd 303e ac21 36bb f7e9 e6bc 8f71 b7bc
00000330: e0df f03b b503 c53d 9150 8e3d 0c06 09bd
00000340: bccf b9bd d9a9 1d3d 5d14 d93d f21f 203c
00000350: 7866 0ebe 9151 0c3d 011b 153d dac9 513d
00000360: ebc4 e63d e934 9d3d f8b0 283d 800b 7abd
00000370: 98c7 673d f1c1 80bd 2928 003b e432 4d3b
00000380: 5efb 823d 60da a2bd 9f46 0e3e 8bcc 903c
00000390: 1dd5 fd3d f5de 5bbc 01b4 933d edb9 d8bd
000003a0: d5b9 93bb dbdb 8dbd 803e ecbd 6c8c 3c3e
000003b0: afa7 6b3c ca68 8e3d 9a62 593d 9cc3 bbbc
000003c0: cdc5 37bd 8951 a03c acca 7e3d 7d66 383e
000003d0: 75fa 263d 116d 9dbd cb27 17bb 4d4c ebbd
000003e0: fc64 14be 0517 d6bd ae67 5dbc 24cd 28be
000003f0: 1c9c a3bd 33cc 423e 6afc 3a3d beaa f8bd
